…
-num_timesteps:
-    value: 0
-observation_space:
-    value: Box(-10.0, 10.0, (140,), float32)
-policy:
-    value: |-
-        ActorCriticPolicy(
-          (features_extractor): FlattenExtractor(
-            (flatten): Flatten(start_dim=1, end_dim=-1)
-          )
-          (pi_features_extractor): FlattenExtractor(
-            (flatten): Flatten(start_dim=1, end_dim=-1)
-          )
-          (vf_features_extractor): FlattenExtractor(
-            (flatten): Flatten(start_dim=1, end_dim=-1)
-          )
-          (mlp_extractor): MlpExtractor(
-            (policy_net): Sequential(
-              (0): Linear(in_features=140, out_features=256, bias=True)
-              (1): ReLU()
-              (2): Linear(in_features=256, out_features=256, bias=True)
-              (3): ReLU()
-            )
-            (value_net): Sequential(
-              (0): Linear(in_features=140, out_features=256, bias=True)
-              (1): ReLU()
-              (2): Linear(in_features=256, out_features=256, bias=True)
-              (3): ReLU()
-            )
-          )
-          (action_net): Linear(in_features=256, out_features=63, bias=True)
-          (value_net): Linear(in_features=256, out_features=1, bias=True)
-        )
-policy_class:
-    value: <class 'stable_baselines3.common.policies.ActorCriticPolicy'>
-policy_kwargs:
-    value: '{''activation_fn'': <class ''torch.nn.modules.activation.ReLU''>, ''net_arch'': {''pi'': [256, 256], ''vf'': [256, 256]}}'
-policy_type:
-    value: PPO
-rollout_buffer:
-    value: <stable_baselines3.common.buffers.RolloutBuffer object at 0x000001FA20ED8E80>
…
-num_timesteps:
-    value: 0
-observation_space:
-    value: Box(-10.0, 10.0, (192,), float32)
-policy:
-    value: |-
-        ActorCriticPolicy(
-          (features_extractor): FlattenExtractor(
-            (flatten): Flatten(start_dim=1, end_dim=-1)
-          )
-          (pi_features_extractor): FlattenExtractor(
-            (flatten): Flatten(start_dim=1, end_dim=-1)
-          )
-          (vf_features_extractor): FlattenExtractor(
-            (flatten): Flatten(start_dim=1, end_dim=-1)
-          )
-          (mlp_extractor): MlpExtractor(
-            (policy_net): Sequential(
-              (0): Linear(in_features=192, out_features=256, bias=True)
-              (1): ReLU()
-              (2): Linear(in_features=256, out_features=256, bias=True)
-              (3): ReLU()
-            )
-            (value_net): Sequential(
-              (0): Linear(in_features=192, out_features=256, bias=True)
-              (1): ReLU()
-              (2): Linear(in_features=256, out_features=256, bias=True)
-              (3): ReLU()
-            )
-          )
-          (action_net): Linear(in_features=256, out_features=63, bias=True)
-          (value_net): Linear(in_features=256, out_features=1, bias=True)
-        )
-policy_class:
-    value: <class 'stable_baselines3.common.policies.ActorCriticPolicy'>
-policy_kwargs:
-    value: '{''activation_fn'': <class ''torch.nn.modules.activation.ReLU''>, ''net_arch'': {''pi'': [256, 256], ''vf'': [256, 256]}}'
-policy_type:
-    value: PPO
-rollout_buffer:
-    value: <stable_baselines3.common.buffers.RolloutBuffer object at 0x000001CC361C8E50>
…
